Model: "MobilenetV3large"
__________________________________________________________________________________________________
Layer (type)                    Output Shape         Param #     Connected to                     
==================================================================================================
input_1 (InputLayer)            [(None, 1600, 256, 1 0                                            
__________________________________________________________________________________________________
rescaling (Rescaling)           (None, 1600, 256, 1) 0           input_1[0][0]                    
__________________________________________________________________________________________________
Conv (Conv2D)                   (None, 800, 128, 16) 144         rescaling[0][0]                  
__________________________________________________________________________________________________
Conv/BatchNorm (BatchNormalizat (None, 800, 128, 16) 64          Conv[0][0]                       
__________________________________________________________________________________________________
tf_op_layer_AddV2 (TensorFlowOp [(None, 800, 128, 16 0           Conv/BatchNorm[0][0]             
__________________________________________________________________________________________________
re_lu (ReLU)                    (None, 800, 128, 16) 0           tf_op_layer_AddV2[0][0]          
__________________________________________________________________________________________________
tf_op_layer_Mul (TensorFlowOpLa [(None, 800, 128, 16 0           re_lu[0][0]                      
__________________________________________________________________________________________________
multiply (Multiply)             (None, 800, 128, 16) 0           tf_op_layer_Mul[0][0]            
                                                                 Conv/BatchNorm[0][0]             
__________________________________________________________________________________________________
expanded_conv/depthwise (Depthw (None, 800, 128, 16) 144         multiply[0][0]                   
__________________________________________________________________________________________________
expanded_conv/depthwise/BatchNo (None, 800, 128, 16) 64          expanded_conv/depthwise[0][0]    
__________________________________________________________________________________________________
re_lu_1 (ReLU)                  (None, 800, 128, 16) 0           expanded_conv/depthwise/BatchNorm
__________________________________________________________________________________________________
expanded_conv/project (Conv2D)  (None, 800, 128, 16) 256         re_lu_1[0][0]                    
__________________________________________________________________________________________________
expanded_conv/project/BatchNorm (None, 800, 128, 16) 64          expanded_conv/project[0][0]      
__________________________________________________________________________________________________
expanded_conv/Add (Add)         (None, 800, 128, 16) 0           multiply[0][0]                   
                                                                 expanded_conv/project/BatchNorm[0
__________________________________________________________________________________________________
expanded_conv_1/expand (Conv2D) (None, 800, 128, 64) 1024        expanded_conv/Add[0][0]          
__________________________________________________________________________________________________
expanded_conv_1/expand/BatchNor (None, 800, 128, 64) 256         expanded_conv_1/expand[0][0]     
__________________________________________________________________________________________________
re_lu_2 (ReLU)                  (None, 800, 128, 64) 0           expanded_conv_1/expand/BatchNorm[
__________________________________________________________________________________________________
expanded_conv_1/depthwise/pad ( (None, 801, 129, 64) 0           re_lu_2[0][0]                    
__________________________________________________________________________________________________
expanded_conv_1/depthwise (Dept (None, 400, 64, 64)  576         expanded_conv_1/depthwise/pad[0][
__________________________________________________________________________________________________
expanded_conv_1/depthwise/Batch (None, 400, 64, 64)  256         expanded_conv_1/depthwise[0][0]  
__________________________________________________________________________________________________
re_lu_3 (ReLU)                  (None, 400, 64, 64)  0           expanded_conv_1/depthwise/BatchNo
__________________________________________________________________________________________________
expanded_conv_1/project (Conv2D (None, 400, 64, 24)  1536        re_lu_3[0][0]                    
__________________________________________________________________________________________________
expanded_conv_1/project/BatchNo (None, 400, 64, 24)  96          expanded_conv_1/project[0][0]    
__________________________________________________________________________________________________
expanded_conv_2/expand (Conv2D) (None, 400, 64, 72)  1728        expanded_conv_1/project/BatchNorm
__________________________________________________________________________________________________
expanded_conv_2/expand/BatchNor (None, 400, 64, 72)  288         expanded_conv_2/expand[0][0]     
__________________________________________________________________________________________________
re_lu_4 (ReLU)                  (None, 400, 64, 72)  0           expanded_conv_2/expand/BatchNorm[
__________________________________________________________________________________________________
expanded_conv_2/depthwise (Dept (None, 400, 64, 72)  648         re_lu_4[0][0]                    
__________________________________________________________________________________________________
expanded_conv_2/depthwise/Batch (None, 400, 64, 72)  288         expanded_conv_2/depthwise[0][0]  
__________________________________________________________________________________________________
re_lu_5 (ReLU)                  (None, 400, 64, 72)  0           expanded_conv_2/depthwise/BatchNo
__________________________________________________________________________________________________
expanded_conv_2/project (Conv2D (None, 400, 64, 24)  1728        re_lu_5[0][0]                    
__________________________________________________________________________________________________
expanded_conv_2/project/BatchNo (None, 400, 64, 24)  96          expanded_conv_2/project[0][0]    
__________________________________________________________________________________________________
expanded_conv_2/Add (Add)       (None, 400, 64, 24)  0           expanded_conv_1/project/BatchNorm
                                                                 expanded_conv_2/project/BatchNorm
__________________________________________________________________________________________________
expanded_conv_3/expand (Conv2D) (None, 400, 64, 72)  1728        expanded_conv_2/Add[0][0]        
__________________________________________________________________________________________________
expanded_conv_3/expand/BatchNor (None, 400, 64, 72)  288         expanded_conv_3/expand[0][0]     
__________________________________________________________________________________________________
re_lu_6 (ReLU)                  (None, 400, 64, 72)  0           expanded_conv_3/expand/BatchNorm[
__________________________________________________________________________________________________
expanded_conv_3/depthwise/pad ( (None, 403, 67, 72)  0           re_lu_6[0][0]                    
__________________________________________________________________________________________________
expanded_conv_3/depthwise (Dept (None, 200, 32, 72)  1800        expanded_conv_3/depthwise/pad[0][
__________________________________________________________________________________________________
expanded_conv_3/depthwise/Batch (None, 200, 32, 72)  288         expanded_conv_3/depthwise[0][0]  
__________________________________________________________________________________________________
re_lu_7 (ReLU)                  (None, 200, 32, 72)  0           expanded_conv_3/depthwise/BatchNo
__________________________________________________________________________________________________
expanded_conv_3/squeeze_excite/ (None, 72)           0           re_lu_7[0][0]                    
__________________________________________________________________________________________________
reshape (Reshape)               (None, 1, 1, 72)     0           expanded_conv_3/squeeze_excite/Av
__________________________________________________________________________________________________
expanded_conv_3/squeeze_excite/ (None, 1, 1, 24)     1752        reshape[0][0]                    
__________________________________________________________________________________________________
expanded_conv_3/squeeze_excite/ (None, 1, 1, 24)     0           expanded_conv_3/squeeze_excite/Co
__________________________________________________________________________________________________
expanded_conv_3/squeeze_excite/ (None, 1, 1, 72)     1800        expanded_conv_3/squeeze_excite/Re
__________________________________________________________________________________________________
tf_op_layer_AddV2_1 (TensorFlow [(None, 1, 1, 72)]   0           expanded_conv_3/squeeze_excite/Co
__________________________________________________________________________________________________
re_lu_8 (ReLU)                  (None, 1, 1, 72)     0           tf_op_layer_AddV2_1[0][0]        
__________________________________________________________________________________________________
tf_op_layer_Mul_1 (TensorFlowOp [(None, 1, 1, 72)]   0           re_lu_8[0][0]                    
__________________________________________________________________________________________________
expanded_conv_3/squeeze_excite/ (None, 200, 32, 72)  0           re_lu_7[0][0]                    
                                                                 tf_op_layer_Mul_1[0][0]          
__________________________________________________________________________________________________
expanded_conv_3/project (Conv2D (None, 200, 32, 40)  2880        expanded_conv_3/squeeze_excite/Mu
__________________________________________________________________________________________________
expanded_conv_3/project/BatchNo (None, 200, 32, 40)  160         expanded_conv_3/project[0][0]    
__________________________________________________________________________________________________
expanded_conv_4/expand (Conv2D) (None, 200, 32, 120) 4800        expanded_conv_3/project/BatchNorm
__________________________________________________________________________________________________
expanded_conv_4/expand/BatchNor (None, 200, 32, 120) 480         expanded_conv_4/expand[0][0]     
__________________________________________________________________________________________________
re_lu_9 (ReLU)                  (None, 200, 32, 120) 0           expanded_conv_4/expand/BatchNorm[
__________________________________________________________________________________________________
expanded_conv_4/depthwise (Dept (None, 200, 32, 120) 3000        re_lu_9[0][0]                    
__________________________________________________________________________________________________
expanded_conv_4/depthwise/Batch (None, 200, 32, 120) 480         expanded_conv_4/depthwise[0][0]  
__________________________________________________________________________________________________
re_lu_10 (ReLU)                 (None, 200, 32, 120) 0           expanded_conv_4/depthwise/BatchNo
__________________________________________________________________________________________________
expanded_conv_4/squeeze_excite/ (None, 120)          0           re_lu_10[0][0]                   
__________________________________________________________________________________________________
reshape_1 (Reshape)             (None, 1, 1, 120)    0           expanded_conv_4/squeeze_excite/Av
__________________________________________________________________________________________________
expanded_conv_4/squeeze_excite/ (None, 1, 1, 32)     3872        reshape_1[0][0]                  
__________________________________________________________________________________________________
expanded_conv_4/squeeze_excite/ (None, 1, 1, 32)     0           expanded_conv_4/squeeze_excite/Co
__________________________________________________________________________________________________
expanded_conv_4/squeeze_excite/ (None, 1, 1, 120)    3960        expanded_conv_4/squeeze_excite/Re
__________________________________________________________________________________________________
tf_op_layer_AddV2_2 (TensorFlow [(None, 1, 1, 120)]  0           expanded_conv_4/squeeze_excite/Co
__________________________________________________________________________________________________
re_lu_11 (ReLU)                 (None, 1, 1, 120)    0           tf_op_layer_AddV2_2[0][0]        
__________________________________________________________________________________________________
tf_op_layer_Mul_2 (TensorFlowOp [(None, 1, 1, 120)]  0           re_lu_11[0][0]                   
__________________________________________________________________________________________________
expanded_conv_4/squeeze_excite/ (None, 200, 32, 120) 0           re_lu_10[0][0]                   
                                                                 tf_op_layer_Mul_2[0][0]          
__________________________________________________________________________________________________
expanded_conv_4/project (Conv2D (None, 200, 32, 40)  4800        expanded_conv_4/squeeze_excite/Mu
__________________________________________________________________________________________________
expanded_conv_4/project/BatchNo (None, 200, 32, 40)  160         expanded_conv_4/project[0][0]    
__________________________________________________________________________________________________
expanded_conv_4/Add (Add)       (None, 200, 32, 40)  0           expanded_conv_3/project/BatchNorm
                                                                 expanded_conv_4/project/BatchNorm
__________________________________________________________________________________________________
expanded_conv_5/expand (Conv2D) (None, 200, 32, 120) 4800        expanded_conv_4/Add[0][0]        
__________________________________________________________________________________________________
expanded_conv_5/expand/BatchNor (None, 200, 32, 120) 480         expanded_conv_5/expand[0][0]     
__________________________________________________________________________________________________
re_lu_12 (ReLU)                 (None, 200, 32, 120) 0           expanded_conv_5/expand/BatchNorm[
__________________________________________________________________________________________________
expanded_conv_5/depthwise (Dept (None, 200, 32, 120) 3000        re_lu_12[0][0]                   
__________________________________________________________________________________________________
expanded_conv_5/depthwise/Batch (None, 200, 32, 120) 480         expanded_conv_5/depthwise[0][0]  
__________________________________________________________________________________________________
re_lu_13 (ReLU)                 (None, 200, 32, 120) 0           expanded_conv_5/depthwise/BatchNo
__________________________________________________________________________________________________
expanded_conv_5/squeeze_excite/ (None, 120)          0           re_lu_13[0][0]                   
__________________________________________________________________________________________________
reshape_2 (Reshape)             (None, 1, 1, 120)    0           expanded_conv_5/squeeze_excite/Av
__________________________________________________________________________________________________
expanded_conv_5/squeeze_excite/ (None, 1, 1, 32)     3872        reshape_2[0][0]                  
__________________________________________________________________________________________________
expanded_conv_5/squeeze_excite/ (None, 1, 1, 32)     0           expanded_conv_5/squeeze_excite/Co
__________________________________________________________________________________________________
expanded_conv_5/squeeze_excite/ (None, 1, 1, 120)    3960        expanded_conv_5/squeeze_excite/Re
__________________________________________________________________________________________________
tf_op_layer_AddV2_3 (TensorFlow [(None, 1, 1, 120)]  0           expanded_conv_5/squeeze_excite/Co
__________________________________________________________________________________________________
re_lu_14 (ReLU)                 (None, 1, 1, 120)    0           tf_op_layer_AddV2_3[0][0]        
__________________________________________________________________________________________________
tf_op_layer_Mul_3 (TensorFlowOp [(None, 1, 1, 120)]  0           re_lu_14[0][0]                   
__________________________________________________________________________________________________
expanded_conv_5/squeeze_excite/ (None, 200, 32, 120) 0           re_lu_13[0][0]                   
                                                                 tf_op_layer_Mul_3[0][0]          
__________________________________________________________________________________________________
expanded_conv_5/project (Conv2D (None, 200, 32, 40)  4800        expanded_conv_5/squeeze_excite/Mu
__________________________________________________________________________________________________
expanded_conv_5/project/BatchNo (None, 200, 32, 40)  160         expanded_conv_5/project[0][0]    
__________________________________________________________________________________________________
expanded_conv_5/Add (Add)       (None, 200, 32, 40)  0           expanded_conv_4/Add[0][0]        
                                                                 expanded_conv_5/project/BatchNorm
__________________________________________________________________________________________________
expanded_conv_6/expand (Conv2D) (None, 200, 32, 240) 9600        expanded_conv_5/Add[0][0]        
__________________________________________________________________________________________________
expanded_conv_6/expand/BatchNor (None, 200, 32, 240) 960         expanded_conv_6/expand[0][0]     
__________________________________________________________________________________________________
tf_op_layer_AddV2_4 (TensorFlow [(None, 200, 32, 240 0           expanded_conv_6/expand/BatchNorm[
__________________________________________________________________________________________________
re_lu_15 (ReLU)                 (None, 200, 32, 240) 0           tf_op_layer_AddV2_4[0][0]        
__________________________________________________________________________________________________
tf_op_layer_Mul_4 (TensorFlowOp [(None, 200, 32, 240 0           re_lu_15[0][0]                   
__________________________________________________________________________________________________
multiply_1 (Multiply)           (None, 200, 32, 240) 0           tf_op_layer_Mul_4[0][0]          
                                                                 expanded_conv_6/expand/BatchNorm[
__________________________________________________________________________________________________
expanded_conv_6/depthwise/pad ( (None, 201, 33, 240) 0           multiply_1[0][0]                 
__________________________________________________________________________________________________
expanded_conv_6/depthwise (Dept (None, 100, 16, 240) 2160        expanded_conv_6/depthwise/pad[0][
__________________________________________________________________________________________________
expanded_conv_6/depthwise/Batch (None, 100, 16, 240) 960         expanded_conv_6/depthwise[0][0]  
__________________________________________________________________________________________________
tf_op_layer_AddV2_5 (TensorFlow [(None, 100, 16, 240 0           expanded_conv_6/depthwise/BatchNo
__________________________________________________________________________________________________
re_lu_16 (ReLU)                 (None, 100, 16, 240) 0           tf_op_layer_AddV2_5[0][0]        
__________________________________________________________________________________________________
tf_op_layer_Mul_5 (TensorFlowOp [(None, 100, 16, 240 0           re_lu_16[0][0]                   
__________________________________________________________________________________________________
multiply_2 (Multiply)           (None, 100, 16, 240) 0           tf_op_layer_Mul_5[0][0]          
                                                                 expanded_conv_6/depthwise/BatchNo
__________________________________________________________________________________________________
expanded_conv_6/project (Conv2D (None, 100, 16, 80)  19200       multiply_2[0][0]                 
__________________________________________________________________________________________________
expanded_conv_6/project/BatchNo (None, 100, 16, 80)  320         expanded_conv_6/project[0][0]    
__________________________________________________________________________________________________
expanded_conv_7/expand (Conv2D) (None, 100, 16, 200) 16000       expanded_conv_6/project/BatchNorm
__________________________________________________________________________________________________
expanded_conv_7/expand/BatchNor (None, 100, 16, 200) 800         expanded_conv_7/expand[0][0]     
__________________________________________________________________________________________________
tf_op_layer_AddV2_6 (TensorFlow [(None, 100, 16, 200 0           expanded_conv_7/expand/BatchNorm[
__________________________________________________________________________________________________
re_lu_17 (ReLU)                 (None, 100, 16, 200) 0           tf_op_layer_AddV2_6[0][0]        
__________________________________________________________________________________________________
tf_op_layer_Mul_6 (TensorFlowOp [(None, 100, 16, 200 0           re_lu_17[0][0]                   
__________________________________________________________________________________________________
multiply_3 (Multiply)           (None, 100, 16, 200) 0           tf_op_layer_Mul_6[0][0]          
                                                                 expanded_conv_7/expand/BatchNorm[
__________________________________________________________________________________________________
expanded_conv_7/depthwise (Dept (None, 100, 16, 200) 1800        multiply_3[0][0]                 
__________________________________________________________________________________________________
expanded_conv_7/depthwise/Batch (None, 100, 16, 200) 800         expanded_conv_7/depthwise[0][0]  
__________________________________________________________________________________________________
tf_op_layer_AddV2_7 (TensorFlow [(None, 100, 16, 200 0           expanded_conv_7/depthwise/BatchNo
__________________________________________________________________________________________________
re_lu_18 (ReLU)                 (None, 100, 16, 200) 0           tf_op_layer_AddV2_7[0][0]        
__________________________________________________________________________________________________
tf_op_layer_Mul_7 (TensorFlowOp [(None, 100, 16, 200 0           re_lu_18[0][0]                   
__________________________________________________________________________________________________
multiply_4 (Multiply)           (None, 100, 16, 200) 0           tf_op_layer_Mul_7[0][0]          
                                                                 expanded_conv_7/depthwise/BatchNo
__________________________________________________________________________________________________
expanded_conv_7/project (Conv2D (None, 100, 16, 80)  16000       multiply_4[0][0]                 
__________________________________________________________________________________________________
expanded_conv_7/project/BatchNo (None, 100, 16, 80)  320         expanded_conv_7/project[0][0]    
__________________________________________________________________________________________________
expanded_conv_7/Add (Add)       (None, 100, 16, 80)  0           expanded_conv_6/project/BatchNorm
                                                                 expanded_conv_7/project/BatchNorm
__________________________________________________________________________________________________
expanded_conv_8/expand (Conv2D) (None, 100, 16, 184) 14720       expanded_conv_7/Add[0][0]        
__________________________________________________________________________________________________
expanded_conv_8/expand/BatchNor (None, 100, 16, 184) 736         expanded_conv_8/expand[0][0]     
__________________________________________________________________________________________________
tf_op_layer_AddV2_8 (TensorFlow [(None, 100, 16, 184 0           expanded_conv_8/expand/BatchNorm[
__________________________________________________________________________________________________
re_lu_19 (ReLU)                 (None, 100, 16, 184) 0           tf_op_layer_AddV2_8[0][0]        
__________________________________________________________________________________________________
tf_op_layer_Mul_8 (TensorFlowOp [(None, 100, 16, 184 0           re_lu_19[0][0]                   
__________________________________________________________________________________________________
multiply_5 (Multiply)           (None, 100, 16, 184) 0           tf_op_layer_Mul_8[0][0]          
                                                                 expanded_conv_8/expand/BatchNorm[
__________________________________________________________________________________________________
expanded_conv_8/depthwise (Dept (None, 100, 16, 184) 1656        multiply_5[0][0]                 
__________________________________________________________________________________________________
expanded_conv_8/depthwise/Batch (None, 100, 16, 184) 736         expanded_conv_8/depthwise[0][0]  
__________________________________________________________________________________________________
tf_op_layer_AddV2_9 (TensorFlow [(None, 100, 16, 184 0           expanded_conv_8/depthwise/BatchNo
__________________________________________________________________________________________________
re_lu_20 (ReLU)                 (None, 100, 16, 184) 0           tf_op_layer_AddV2_9[0][0]        
__________________________________________________________________________________________________
tf_op_layer_Mul_9 (TensorFlowOp [(None, 100, 16, 184 0           re_lu_20[0][0]                   
__________________________________________________________________________________________________
multiply_6 (Multiply)           (None, 100, 16, 184) 0           tf_op_layer_Mul_9[0][0]          
                                                                 expanded_conv_8/depthwise/BatchNo
__________________________________________________________________________________________________
expanded_conv_8/project (Conv2D (None, 100, 16, 80)  14720       multiply_6[0][0]                 
__________________________________________________________________________________________________
expanded_conv_8/project/BatchNo (None, 100, 16, 80)  320         expanded_conv_8/project[0][0]    
__________________________________________________________________________________________________
expanded_conv_8/Add (Add)       (None, 100, 16, 80)  0           expanded_conv_7/Add[0][0]        
                                                                 expanded_conv_8/project/BatchNorm
__________________________________________________________________________________________________
expanded_conv_9/expand (Conv2D) (None, 100, 16, 184) 14720       expanded_conv_8/Add[0][0]        
__________________________________________________________________________________________________
expanded_conv_9/expand/BatchNor (None, 100, 16, 184) 736         expanded_conv_9/expand[0][0]     
__________________________________________________________________________________________________
tf_op_layer_AddV2_10 (TensorFlo [(None, 100, 16, 184 0           expanded_conv_9/expand/BatchNorm[
__________________________________________________________________________________________________
re_lu_21 (ReLU)                 (None, 100, 16, 184) 0           tf_op_layer_AddV2_10[0][0]       
__________________________________________________________________________________________________
tf_op_layer_Mul_10 (TensorFlowO [(None, 100, 16, 184 0           re_lu_21[0][0]                   
__________________________________________________________________________________________________
multiply_7 (Multiply)           (None, 100, 16, 184) 0           tf_op_layer_Mul_10[0][0]         
                                                                 expanded_conv_9/expand/BatchNorm[
__________________________________________________________________________________________________
expanded_conv_9/depthwise (Dept (None, 100, 16, 184) 1656        multiply_7[0][0]                 
__________________________________________________________________________________________________
expanded_conv_9/depthwise/Batch (None, 100, 16, 184) 736         expanded_conv_9/depthwise[0][0]  
__________________________________________________________________________________________________
tf_op_layer_AddV2_11 (TensorFlo [(None, 100, 16, 184 0           expanded_conv_9/depthwise/BatchNo
__________________________________________________________________________________________________
re_lu_22 (ReLU)                 (None, 100, 16, 184) 0           tf_op_layer_AddV2_11[0][0]       
__________________________________________________________________________________________________
tf_op_layer_Mul_11 (TensorFlowO [(None, 100, 16, 184 0           re_lu_22[0][0]                   
__________________________________________________________________________________________________
multiply_8 (Multiply)           (None, 100, 16, 184) 0           tf_op_layer_Mul_11[0][0]         
                                                                 expanded_conv_9/depthwise/BatchNo
__________________________________________________________________________________________________
expanded_conv_9/project (Conv2D (None, 100, 16, 80)  14720       multiply_8[0][0]                 
__________________________________________________________________________________________________
expanded_conv_9/project/BatchNo (None, 100, 16, 80)  320         expanded_conv_9/project[0][0]    
__________________________________________________________________________________________________
expanded_conv_9/Add (Add)       (None, 100, 16, 80)  0           expanded_conv_8/Add[0][0]        
                                                                 expanded_conv_9/project/BatchNorm
__________________________________________________________________________________________________
expanded_conv_10/expand (Conv2D (None, 100, 16, 480) 38400       expanded_conv_9/Add[0][0]        
__________________________________________________________________________________________________
expanded_conv_10/expand/BatchNo (None, 100, 16, 480) 1920        expanded_conv_10/expand[0][0]    
__________________________________________________________________________________________________
tf_op_layer_AddV2_12 (TensorFlo [(None, 100, 16, 480 0           expanded_conv_10/expand/BatchNorm
__________________________________________________________________________________________________
re_lu_23 (ReLU)                 (None, 100, 16, 480) 0           tf_op_layer_AddV2_12[0][0]       
__________________________________________________________________________________________________
tf_op_layer_Mul_12 (TensorFlowO [(None, 100, 16, 480 0           re_lu_23[0][0]                   
__________________________________________________________________________________________________
multiply_9 (Multiply)           (None, 100, 16, 480) 0           tf_op_layer_Mul_12[0][0]         
                                                                 expanded_conv_10/expand/BatchNorm
__________________________________________________________________________________________________
expanded_conv_10/depthwise (Dep (None, 100, 16, 480) 4320        multiply_9[0][0]                 
__________________________________________________________________________________________________
expanded_conv_10/depthwise/Batc (None, 100, 16, 480) 1920        expanded_conv_10/depthwise[0][0] 
__________________________________________________________________________________________________
tf_op_layer_AddV2_13 (TensorFlo [(None, 100, 16, 480 0           expanded_conv_10/depthwise/BatchN
__________________________________________________________________________________________________
re_lu_24 (ReLU)                 (None, 100, 16, 480) 0           tf_op_layer_AddV2_13[0][0]       
__________________________________________________________________________________________________
tf_op_layer_Mul_13 (TensorFlowO [(None, 100, 16, 480 0           re_lu_24[0][0]                   
__________________________________________________________________________________________________
multiply_10 (Multiply)          (None, 100, 16, 480) 0           tf_op_layer_Mul_13[0][0]         
                                                                 expanded_conv_10/depthwise/BatchN
__________________________________________________________________________________________________
expanded_conv_10/squeeze_excite (None, 480)          0           multiply_10[0][0]                
__________________________________________________________________________________________________
reshape_3 (Reshape)             (None, 1, 1, 480)    0           expanded_conv_10/squeeze_excite/A
__________________________________________________________________________________________________
expanded_conv_10/squeeze_excite (None, 1, 1, 120)    57720       reshape_3[0][0]                  
__________________________________________________________________________________________________
expanded_conv_10/squeeze_excite (None, 1, 1, 120)    0           expanded_conv_10/squeeze_excite/C
__________________________________________________________________________________________________
expanded_conv_10/squeeze_excite (None, 1, 1, 480)    58080       expanded_conv_10/squeeze_excite/R
__________________________________________________________________________________________________
tf_op_layer_AddV2_14 (TensorFlo [(None, 1, 1, 480)]  0           expanded_conv_10/squeeze_excite/C
__________________________________________________________________________________________________
re_lu_25 (ReLU)                 (None, 1, 1, 480)    0           tf_op_layer_AddV2_14[0][0]       
__________________________________________________________________________________________________
tf_op_layer_Mul_14 (TensorFlowO [(None, 1, 1, 480)]  0           re_lu_25[0][0]                   
__________________________________________________________________________________________________
expanded_conv_10/squeeze_excite (None, 100, 16, 480) 0           multiply_10[0][0]                
                                                                 tf_op_layer_Mul_14[0][0]         
__________________________________________________________________________________________________
expanded_conv_10/project (Conv2 (None, 100, 16, 112) 53760       expanded_conv_10/squeeze_excite/M
__________________________________________________________________________________________________
expanded_conv_10/project/BatchN (None, 100, 16, 112) 448         expanded_conv_10/project[0][0]   
__________________________________________________________________________________________________
expanded_conv_11/expand (Conv2D (None, 100, 16, 672) 75264       expanded_conv_10/project/BatchNor
__________________________________________________________________________________________________
expanded_conv_11/expand/BatchNo (None, 100, 16, 672) 2688        expanded_conv_11/expand[0][0]    
__________________________________________________________________________________________________
tf_op_layer_AddV2_15 (TensorFlo [(None, 100, 16, 672 0           expanded_conv_11/expand/BatchNorm
__________________________________________________________________________________________________
re_lu_26 (ReLU)                 (None, 100, 16, 672) 0           tf_op_layer_AddV2_15[0][0]       
__________________________________________________________________________________________________
tf_op_layer_Mul_15 (TensorFlowO [(None, 100, 16, 672 0           re_lu_26[0][0]                   
__________________________________________________________________________________________________
multiply_11 (Multiply)          (None, 100, 16, 672) 0           tf_op_layer_Mul_15[0][0]         
                                                                 expanded_conv_11/expand/BatchNorm
__________________________________________________________________________________________________
expanded_conv_11/depthwise (Dep (None, 100, 16, 672) 6048        multiply_11[0][0]                
__________________________________________________________________________________________________
expanded_conv_11/depthwise/Batc (None, 100, 16, 672) 2688        expanded_conv_11/depthwise[0][0] 
__________________________________________________________________________________________________
tf_op_layer_AddV2_16 (TensorFlo [(None, 100, 16, 672 0           expanded_conv_11/depthwise/BatchN
__________________________________________________________________________________________________
re_lu_27 (ReLU)                 (None, 100, 16, 672) 0           tf_op_layer_AddV2_16[0][0]       
__________________________________________________________________________________________________
tf_op_layer_Mul_16 (TensorFlowO [(None, 100, 16, 672 0           re_lu_27[0][0]                   
__________________________________________________________________________________________________
multiply_12 (Multiply)          (None, 100, 16, 672) 0           tf_op_layer_Mul_16[0][0]         
                                                                 expanded_conv_11/depthwise/BatchN
__________________________________________________________________________________________________
expanded_conv_11/squeeze_excite (None, 672)          0           multiply_12[0][0]                
__________________________________________________________________________________________________
reshape_4 (Reshape)             (None, 1, 1, 672)    0           expanded_conv_11/squeeze_excite/A
__________________________________________________________________________________________________
expanded_conv_11/squeeze_excite (None, 1, 1, 168)    113064      reshape_4[0][0]                  
__________________________________________________________________________________________________
expanded_conv_11/squeeze_excite (None, 1, 1, 168)    0           expanded_conv_11/squeeze_excite/C
__________________________________________________________________________________________________
expanded_conv_11/squeeze_excite (None, 1, 1, 672)    113568      expanded_conv_11/squeeze_excite/R
__________________________________________________________________________________________________
tf_op_layer_AddV2_17 (TensorFlo [(None, 1, 1, 672)]  0           expanded_conv_11/squeeze_excite/C
__________________________________________________________________________________________________
re_lu_28 (ReLU)                 (None, 1, 1, 672)    0           tf_op_layer_AddV2_17[0][0]       
__________________________________________________________________________________________________
tf_op_layer_Mul_17 (TensorFlowO [(None, 1, 1, 672)]  0           re_lu_28[0][0]                   
__________________________________________________________________________________________________
expanded_conv_11/squeeze_excite (None, 100, 16, 672) 0           multiply_12[0][0]                
                                                                 tf_op_layer_Mul_17[0][0]         
__________________________________________________________________________________________________
expanded_conv_11/project (Conv2 (None, 100, 16, 112) 75264       expanded_conv_11/squeeze_excite/M
__________________________________________________________________________________________________
expanded_conv_11/project/BatchN (None, 100, 16, 112) 448         expanded_conv_11/project[0][0]   
__________________________________________________________________________________________________
expanded_conv_11/Add (Add)      (None, 100, 16, 112) 0           expanded_conv_10/project/BatchNor
                                                                 expanded_conv_11/project/BatchNor
__________________________________________________________________________________________________
expanded_conv_12/expand (Conv2D (None, 100, 16, 672) 75264       expanded_conv_11/Add[0][0]       
__________________________________________________________________________________________________
expanded_conv_12/expand/BatchNo (None, 100, 16, 672) 2688        expanded_conv_12/expand[0][0]    
__________________________________________________________________________________________________
tf_op_layer_AddV2_18 (TensorFlo [(None, 100, 16, 672 0           expanded_conv_12/expand/BatchNorm
__________________________________________________________________________________________________
re_lu_29 (ReLU)                 (None, 100, 16, 672) 0           tf_op_layer_AddV2_18[0][0]       
__________________________________________________________________________________________________
tf_op_layer_Mul_18 (TensorFlowO [(None, 100, 16, 672 0           re_lu_29[0][0]                   
__________________________________________________________________________________________________
multiply_13 (Multiply)          (None, 100, 16, 672) 0           tf_op_layer_Mul_18[0][0]         
                                                                 expanded_conv_12/expand/BatchNorm
__________________________________________________________________________________________________
expanded_conv_12/depthwise/pad  (None, 103, 19, 672) 0           multiply_13[0][0]                
__________________________________________________________________________________________________
expanded_conv_12/depthwise (Dep (None, 50, 8, 672)   16800       expanded_conv_12/depthwise/pad[0]
__________________________________________________________________________________________________
expanded_conv_12/depthwise/Batc (None, 50, 8, 672)   2688        expanded_conv_12/depthwise[0][0] 
__________________________________________________________________________________________________
tf_op_layer_AddV2_19 (TensorFlo [(None, 50, 8, 672)] 0           expanded_conv_12/depthwise/BatchN
__________________________________________________________________________________________________
re_lu_30 (ReLU)                 (None, 50, 8, 672)   0           tf_op_layer_AddV2_19[0][0]       
__________________________________________________________________________________________________
tf_op_layer_Mul_19 (TensorFlowO [(None, 50, 8, 672)] 0           re_lu_30[0][0]                   
__________________________________________________________________________________________________
multiply_14 (Multiply)          (None, 50, 8, 672)   0           tf_op_layer_Mul_19[0][0]         
                                                                 expanded_conv_12/depthwise/BatchN
__________________________________________________________________________________________________
expanded_conv_12/squeeze_excite (None, 672)          0           multiply_14[0][0]                
__________________________________________________________________________________________________
reshape_5 (Reshape)             (None, 1, 1, 672)    0           expanded_conv_12/squeeze_excite/A
__________________________________________________________________________________________________
expanded_conv_12/squeeze_excite (None, 1, 1, 168)    113064      reshape_5[0][0]                  
__________________________________________________________________________________________________
expanded_conv_12/squeeze_excite (None, 1, 1, 168)    0           expanded_conv_12/squeeze_excite/C
__________________________________________________________________________________________________
expanded_conv_12/squeeze_excite (None, 1, 1, 672)    113568      expanded_conv_12/squeeze_excite/R
__________________________________________________________________________________________________
tf_op_layer_AddV2_20 (TensorFlo [(None, 1, 1, 672)]  0           expanded_conv_12/squeeze_excite/C
__________________________________________________________________________________________________
re_lu_31 (ReLU)                 (None, 1, 1, 672)    0           tf_op_layer_AddV2_20[0][0]       
__________________________________________________________________________________________________
tf_op_layer_Mul_20 (TensorFlowO [(None, 1, 1, 672)]  0           re_lu_31[0][0]                   
__________________________________________________________________________________________________
expanded_conv_12/squeeze_excite (None, 50, 8, 672)   0           multiply_14[0][0]                
                                                                 tf_op_layer_Mul_20[0][0]         
__________________________________________________________________________________________________
expanded_conv_12/project (Conv2 (None, 50, 8, 160)   107520      expanded_conv_12/squeeze_excite/M
__________________________________________________________________________________________________
expanded_conv_12/project/BatchN (None, 50, 8, 160)   640         expanded_conv_12/project[0][0]   
__________________________________________________________________________________________________
expanded_conv_13/expand (Conv2D (None, 50, 8, 960)   153600      expanded_conv_12/project/BatchNor
__________________________________________________________________________________________________
expanded_conv_13/expand/BatchNo (None, 50, 8, 960)   3840        expanded_conv_13/expand[0][0]    
__________________________________________________________________________________________________
tf_op_layer_AddV2_21 (TensorFlo [(None, 50, 8, 960)] 0           expanded_conv_13/expand/BatchNorm
__________________________________________________________________________________________________
re_lu_32 (ReLU)                 (None, 50, 8, 960)   0           tf_op_layer_AddV2_21[0][0]       
__________________________________________________________________________________________________
tf_op_layer_Mul_21 (TensorFlowO [(None, 50, 8, 960)] 0           re_lu_32[0][0]                   
__________________________________________________________________________________________________
multiply_15 (Multiply)          (None, 50, 8, 960)   0           tf_op_layer_Mul_21[0][0]         
                                                                 expanded_conv_13/expand/BatchNorm
__________________________________________________________________________________________________
expanded_conv_13/depthwise (Dep (None, 50, 8, 960)   24000       multiply_15[0][0]                
__________________________________________________________________________________________________
expanded_conv_13/depthwise/Batc (None, 50, 8, 960)   3840        expanded_conv_13/depthwise[0][0] 
__________________________________________________________________________________________________
tf_op_layer_AddV2_22 (TensorFlo [(None, 50, 8, 960)] 0           expanded_conv_13/depthwise/BatchN
__________________________________________________________________________________________________
re_lu_33 (ReLU)                 (None, 50, 8, 960)   0           tf_op_layer_AddV2_22[0][0]       
__________________________________________________________________________________________________
tf_op_layer_Mul_22 (TensorFlowO [(None, 50, 8, 960)] 0           re_lu_33[0][0]                   
__________________________________________________________________________________________________
multiply_16 (Multiply)          (None, 50, 8, 960)   0           tf_op_layer_Mul_22[0][0]         
                                                                 expanded_conv_13/depthwise/BatchN
__________________________________________________________________________________________________
expanded_conv_13/squeeze_excite (None, 960)          0           multiply_16[0][0]                
__________________________________________________________________________________________________
reshape_6 (Reshape)             (None, 1, 1, 960)    0           expanded_conv_13/squeeze_excite/A
__________________________________________________________________________________________________
expanded_conv_13/squeeze_excite (None, 1, 1, 240)    230640      reshape_6[0][0]                  
__________________________________________________________________________________________________
expanded_conv_13/squeeze_excite (None, 1, 1, 240)    0           expanded_conv_13/squeeze_excite/C
__________________________________________________________________________________________________
expanded_conv_13/squeeze_excite (None, 1, 1, 960)    231360      expanded_conv_13/squeeze_excite/R
__________________________________________________________________________________________________
tf_op_layer_AddV2_23 (TensorFlo [(None, 1, 1, 960)]  0           expanded_conv_13/squeeze_excite/C
__________________________________________________________________________________________________
re_lu_34 (ReLU)                 (None, 1, 1, 960)    0           tf_op_layer_AddV2_23[0][0]       
__________________________________________________________________________________________________
tf_op_layer_Mul_23 (TensorFlowO [(None, 1, 1, 960)]  0           re_lu_34[0][0]                   
__________________________________________________________________________________________________
expanded_conv_13/squeeze_excite (None, 50, 8, 960)   0           multiply_16[0][0]                
                                                                 tf_op_layer_Mul_23[0][0]         
__________________________________________________________________________________________________
expanded_conv_13/project (Conv2 (None, 50, 8, 160)   153600      expanded_conv_13/squeeze_excite/M
__________________________________________________________________________________________________
expanded_conv_13/project/BatchN (None, 50, 8, 160)   640         expanded_conv_13/project[0][0]   
__________________________________________________________________________________________________
expanded_conv_13/Add (Add)      (None, 50, 8, 160)   0           expanded_conv_12/project/BatchNor
                                                                 expanded_conv_13/project/BatchNor
__________________________________________________________________________________________________
expanded_conv_14/expand (Conv2D (None, 50, 8, 960)   153600      expanded_conv_13/Add[0][0]       
__________________________________________________________________________________________________
expanded_conv_14/expand/BatchNo (None, 50, 8, 960)   3840        expanded_conv_14/expand[0][0]    
__________________________________________________________________________________________________
tf_op_layer_AddV2_24 (TensorFlo [(None, 50, 8, 960)] 0           expanded_conv_14/expand/BatchNorm
__________________________________________________________________________________________________
re_lu_35 (ReLU)                 (None, 50, 8, 960)   0           tf_op_layer_AddV2_24[0][0]       
__________________________________________________________________________________________________
tf_op_layer_Mul_24 (TensorFlowO [(None, 50, 8, 960)] 0           re_lu_35[0][0]                   
__________________________________________________________________________________________________
multiply_17 (Multiply)          (None, 50, 8, 960)   0           tf_op_layer_Mul_24[0][0]         
                                                                 expanded_conv_14/expand/BatchNorm
__________________________________________________________________________________________________
expanded_conv_14/depthwise (Dep (None, 50, 8, 960)   24000       multiply_17[0][0]                
__________________________________________________________________________________________________
expanded_conv_14/depthwise/Batc (None, 50, 8, 960)   3840        expanded_conv_14/depthwise[0][0] 
__________________________________________________________________________________________________
tf_op_layer_AddV2_25 (TensorFlo [(None, 50, 8, 960)] 0           expanded_conv_14/depthwise/BatchN
__________________________________________________________________________________________________
re_lu_36 (ReLU)                 (None, 50, 8, 960)   0           tf_op_layer_AddV2_25[0][0]       
__________________________________________________________________________________________________
tf_op_layer_Mul_25 (TensorFlowO [(None, 50, 8, 960)] 0           re_lu_36[0][0]                   
__________________________________________________________________________________________________
multiply_18 (Multiply)          (None, 50, 8, 960)   0           tf_op_layer_Mul_25[0][0]         
                                                                 expanded_conv_14/depthwise/BatchN
__________________________________________________________________________________________________
expanded_conv_14/squeeze_excite (None, 960)          0           multiply_18[0][0]                
__________________________________________________________________________________________________
reshape_7 (Reshape)             (None, 1, 1, 960)    0           expanded_conv_14/squeeze_excite/A
__________________________________________________________________________________________________
expanded_conv_14/squeeze_excite (None, 1, 1, 240)    230640      reshape_7[0][0]                  
__________________________________________________________________________________________________
expanded_conv_14/squeeze_excite (None, 1, 1, 240)    0           expanded_conv_14/squeeze_excite/C
__________________________________________________________________________________________________
expanded_conv_14/squeeze_excite (None, 1, 1, 960)    231360      expanded_conv_14/squeeze_excite/R
__________________________________________________________________________________________________
tf_op_layer_AddV2_26 (TensorFlo [(None, 1, 1, 960)]  0           expanded_conv_14/squeeze_excite/C
__________________________________________________________________________________________________
re_lu_37 (ReLU)                 (None, 1, 1, 960)    0           tf_op_layer_AddV2_26[0][0]       
__________________________________________________________________________________________________
tf_op_layer_Mul_26 (TensorFlowO [(None, 1, 1, 960)]  0           re_lu_37[0][0]                   
__________________________________________________________________________________________________
expanded_conv_14/squeeze_excite (None, 50, 8, 960)   0           multiply_18[0][0]                
                                                                 tf_op_layer_Mul_26[0][0]         
__________________________________________________________________________________________________
expanded_conv_14/project (Conv2 (None, 50, 8, 160)   153600      expanded_conv_14/squeeze_excite/M
__________________________________________________________________________________________________
expanded_conv_14/project/BatchN (None, 50, 8, 160)   640         expanded_conv_14/project[0][0]   
__________________________________________________________________________________________________
expanded_conv_14/Add (Add)      (None, 50, 8, 160)   0           expanded_conv_13/Add[0][0]       
                                                                 expanded_conv_14/project/BatchNor
__________________________________________________________________________________________________
Conv_1 (Conv2D)                 (None, 50, 8, 960)   153600      expanded_conv_14/Add[0][0]       
__________________________________________________________________________________________________
Conv_1/BatchNorm (BatchNormaliz (None, 50, 8, 960)   3840        Conv_1[0][0]                     
__________________________________________________________________________________________________
tf_op_layer_AddV2_27 (TensorFlo [(None, 50, 8, 960)] 0           Conv_1/BatchNorm[0][0]           
__________________________________________________________________________________________________
re_lu_38 (ReLU)                 (None, 50, 8, 960)   0           tf_op_layer_AddV2_27[0][0]       
__________________________________________________________________________________________________
tf_op_layer_Mul_27 (TensorFlowO [(None, 50, 8, 960)] 0           re_lu_38[0][0]                   
__________________________________________________________________________________________________
multiply_19 (Multiply)          (None, 50, 8, 960)   0           tf_op_layer_Mul_27[0][0]         
                                                                 Conv_1/BatchNorm[0][0]           
__________________________________________________________________________________________________
Conv_2 (Conv2D)                 (None, 50, 8, 1280)  1230080     multiply_19[0][0]                
__________________________________________________________________________________________________
tf_op_layer_AddV2_28 (TensorFlo [(None, 50, 8, 1280) 0           Conv_2[0][0]                     
__________________________________________________________________________________________________
re_lu_39 (ReLU)                 (None, 50, 8, 1280)  0           tf_op_layer_AddV2_28[0][0]       
__________________________________________________________________________________________________
tf_op_layer_Mul_28 (TensorFlowO [(None, 50, 8, 1280) 0           re_lu_39[0][0]                   
__________________________________________________________________________________________________
multiply_20 (Multiply)          (None, 50, 8, 1280)  0           tf_op_layer_Mul_28[0][0]         
                                                                 Conv_2[0][0]                     
==================================================================================================
Total params: 4,226,144
Trainable params: 4,201,744
Non-trainable params: 24,400
__________________________________________________________________________________________________
