Model: "MobilenetV3small"
__________________________________________________________________________________________________
Layer (type)                    Output Shape         Param #     Connected to                     
==================================================================================================
input_1 (InputLayer)            [(None, 1600, 256, 1 0                                            
__________________________________________________________________________________________________
rescaling (Rescaling)           (None, 1600, 256, 1) 0           input_1[0][0]                    
__________________________________________________________________________________________________
Conv (Conv2D)                   (None, 800, 128, 16) 144         rescaling[0][0]                  
__________________________________________________________________________________________________
Conv/BatchNorm (BatchNormalizat (None, 800, 128, 16) 64          Conv[0][0]                       
__________________________________________________________________________________________________
tf_op_layer_AddV2 (TensorFlowOp [(None, 800, 128, 16 0           Conv/BatchNorm[0][0]             
__________________________________________________________________________________________________
re_lu (ReLU)                    (None, 800, 128, 16) 0           tf_op_layer_AddV2[0][0]          
__________________________________________________________________________________________________
tf_op_layer_Mul (TensorFlowOpLa [(None, 800, 128, 16 0           re_lu[0][0]                      
__________________________________________________________________________________________________
multiply (Multiply)             (None, 800, 128, 16) 0           tf_op_layer_Mul[0][0]            
                                                                 Conv/BatchNorm[0][0]             
__________________________________________________________________________________________________
expanded_conv/depthwise/pad (Ze (None, 801, 129, 16) 0           multiply[0][0]                   
__________________________________________________________________________________________________
expanded_conv/depthwise (Depthw (None, 400, 64, 16)  144         expanded_conv/depthwise/pad[0][0]
__________________________________________________________________________________________________
expanded_conv/depthwise/BatchNo (None, 400, 64, 16)  64          expanded_conv/depthwise[0][0]    
__________________________________________________________________________________________________
re_lu_1 (ReLU)                  (None, 400, 64, 16)  0           expanded_conv/depthwise/BatchNorm
__________________________________________________________________________________________________
expanded_conv/squeeze_excite/Av (None, 16)           0           re_lu_1[0][0]                    
__________________________________________________________________________________________________
reshape (Reshape)               (None, 1, 1, 16)     0           expanded_conv/squeeze_excite/AvgP
__________________________________________________________________________________________________
expanded_conv/squeeze_excite/Co (None, 1, 1, 8)      136         reshape[0][0]                    
__________________________________________________________________________________________________
expanded_conv/squeeze_excite/Re (None, 1, 1, 8)      0           expanded_conv/squeeze_excite/Conv
__________________________________________________________________________________________________
expanded_conv/squeeze_excite/Co (None, 1, 1, 16)     144         expanded_conv/squeeze_excite/Relu
__________________________________________________________________________________________________
tf_op_layer_AddV2_1 (TensorFlow [(None, 1, 1, 16)]   0           expanded_conv/squeeze_excite/Conv
__________________________________________________________________________________________________
re_lu_2 (ReLU)                  (None, 1, 1, 16)     0           tf_op_layer_AddV2_1[0][0]        
__________________________________________________________________________________________________
tf_op_layer_Mul_1 (TensorFlowOp [(None, 1, 1, 16)]   0           re_lu_2[0][0]                    
__________________________________________________________________________________________________
expanded_conv/squeeze_excite/Mu (None, 400, 64, 16)  0           re_lu_1[0][0]                    
                                                                 tf_op_layer_Mul_1[0][0]          
__________________________________________________________________________________________________
expanded_conv/project (Conv2D)  (None, 400, 64, 16)  256         expanded_conv/squeeze_excite/Mul[
__________________________________________________________________________________________________
expanded_conv/project/BatchNorm (None, 400, 64, 16)  64          expanded_conv/project[0][0]      
__________________________________________________________________________________________________
expanded_conv_1/expand (Conv2D) (None, 400, 64, 72)  1152        expanded_conv/project/BatchNorm[0
__________________________________________________________________________________________________
expanded_conv_1/expand/BatchNor (None, 400, 64, 72)  288         expanded_conv_1/expand[0][0]     
__________________________________________________________________________________________________
re_lu_3 (ReLU)                  (None, 400, 64, 72)  0           expanded_conv_1/expand/BatchNorm[
__________________________________________________________________________________________________
expanded_conv_1/depthwise/pad ( (None, 401, 65, 72)  0           re_lu_3[0][0]                    
__________________________________________________________________________________________________
expanded_conv_1/depthwise (Dept (None, 200, 32, 72)  648         expanded_conv_1/depthwise/pad[0][
__________________________________________________________________________________________________
expanded_conv_1/depthwise/Batch (None, 200, 32, 72)  288         expanded_conv_1/depthwise[0][0]  
__________________________________________________________________________________________________
re_lu_4 (ReLU)                  (None, 200, 32, 72)  0           expanded_conv_1/depthwise/BatchNo
__________________________________________________________________________________________________
expanded_conv_1/project (Conv2D (None, 200, 32, 24)  1728        re_lu_4[0][0]                    
__________________________________________________________________________________________________
expanded_conv_1/project/BatchNo (None, 200, 32, 24)  96          expanded_conv_1/project[0][0]    
__________________________________________________________________________________________________
expanded_conv_2/expand (Conv2D) (None, 200, 32, 88)  2112        expanded_conv_1/project/BatchNorm
__________________________________________________________________________________________________
expanded_conv_2/expand/BatchNor (None, 200, 32, 88)  352         expanded_conv_2/expand[0][0]     
__________________________________________________________________________________________________
re_lu_5 (ReLU)                  (None, 200, 32, 88)  0           expanded_conv_2/expand/BatchNorm[
__________________________________________________________________________________________________
expanded_conv_2/depthwise (Dept (None, 200, 32, 88)  792         re_lu_5[0][0]                    
__________________________________________________________________________________________________
expanded_conv_2/depthwise/Batch (None, 200, 32, 88)  352         expanded_conv_2/depthwise[0][0]  
__________________________________________________________________________________________________
re_lu_6 (ReLU)                  (None, 200, 32, 88)  0           expanded_conv_2/depthwise/BatchNo
__________________________________________________________________________________________________
expanded_conv_2/project (Conv2D (None, 200, 32, 24)  2112        re_lu_6[0][0]                    
__________________________________________________________________________________________________
expanded_conv_2/project/BatchNo (None, 200, 32, 24)  96          expanded_conv_2/project[0][0]    
__________________________________________________________________________________________________
expanded_conv_2/Add (Add)       (None, 200, 32, 24)  0           expanded_conv_1/project/BatchNorm
                                                                 expanded_conv_2/project/BatchNorm
__________________________________________________________________________________________________
expanded_conv_3/expand (Conv2D) (None, 200, 32, 96)  2304        expanded_conv_2/Add[0][0]        
__________________________________________________________________________________________________
expanded_conv_3/expand/BatchNor (None, 200, 32, 96)  384         expanded_conv_3/expand[0][0]     
__________________________________________________________________________________________________
tf_op_layer_AddV2_2 (TensorFlow [(None, 200, 32, 96) 0           expanded_conv_3/expand/BatchNorm[
__________________________________________________________________________________________________
re_lu_7 (ReLU)                  (None, 200, 32, 96)  0           tf_op_layer_AddV2_2[0][0]        
__________________________________________________________________________________________________
tf_op_layer_Mul_2 (TensorFlowOp [(None, 200, 32, 96) 0           re_lu_7[0][0]                    
__________________________________________________________________________________________________
multiply_1 (Multiply)           (None, 200, 32, 96)  0           tf_op_layer_Mul_2[0][0]          
                                                                 expanded_conv_3/expand/BatchNorm[
__________________________________________________________________________________________________
expanded_conv_3/depthwise/pad ( (None, 203, 35, 96)  0           multiply_1[0][0]                 
__________________________________________________________________________________________________
expanded_conv_3/depthwise (Dept (None, 100, 16, 96)  2400        expanded_conv_3/depthwise/pad[0][
__________________________________________________________________________________________________
expanded_conv_3/depthwise/Batch (None, 100, 16, 96)  384         expanded_conv_3/depthwise[0][0]  
__________________________________________________________________________________________________
tf_op_layer_AddV2_3 (TensorFlow [(None, 100, 16, 96) 0           expanded_conv_3/depthwise/BatchNo
__________________________________________________________________________________________________
re_lu_8 (ReLU)                  (None, 100, 16, 96)  0           tf_op_layer_AddV2_3[0][0]        
__________________________________________________________________________________________________
tf_op_layer_Mul_3 (TensorFlowOp [(None, 100, 16, 96) 0           re_lu_8[0][0]                    
__________________________________________________________________________________________________
multiply_2 (Multiply)           (None, 100, 16, 96)  0           tf_op_layer_Mul_3[0][0]          
                                                                 expanded_conv_3/depthwise/BatchNo
__________________________________________________________________________________________________
expanded_conv_3/squeeze_excite/ (None, 96)           0           multiply_2[0][0]                 
__________________________________________________________________________________________________
reshape_1 (Reshape)             (None, 1, 1, 96)     0           expanded_conv_3/squeeze_excite/Av
__________________________________________________________________________________________________
expanded_conv_3/squeeze_excite/ (None, 1, 1, 24)     2328        reshape_1[0][0]                  
__________________________________________________________________________________________________
expanded_conv_3/squeeze_excite/ (None, 1, 1, 24)     0           expanded_conv_3/squeeze_excite/Co
__________________________________________________________________________________________________
expanded_conv_3/squeeze_excite/ (None, 1, 1, 96)     2400        expanded_conv_3/squeeze_excite/Re
__________________________________________________________________________________________________
tf_op_layer_AddV2_4 (TensorFlow [(None, 1, 1, 96)]   0           expanded_conv_3/squeeze_excite/Co
__________________________________________________________________________________________________
re_lu_9 (ReLU)                  (None, 1, 1, 96)     0           tf_op_layer_AddV2_4[0][0]        
__________________________________________________________________________________________________
tf_op_layer_Mul_4 (TensorFlowOp [(None, 1, 1, 96)]   0           re_lu_9[0][0]                    
__________________________________________________________________________________________________
expanded_conv_3/squeeze_excite/ (None, 100, 16, 96)  0           multiply_2[0][0]                 
                                                                 tf_op_layer_Mul_4[0][0]          
__________________________________________________________________________________________________
expanded_conv_3/project (Conv2D (None, 100, 16, 40)  3840        expanded_conv_3/squeeze_excite/Mu
__________________________________________________________________________________________________
expanded_conv_3/project/BatchNo (None, 100, 16, 40)  160         expanded_conv_3/project[0][0]    
__________________________________________________________________________________________________
expanded_conv_4/expand (Conv2D) (None, 100, 16, 240) 9600        expanded_conv_3/project/BatchNorm
__________________________________________________________________________________________________
expanded_conv_4/expand/BatchNor (None, 100, 16, 240) 960         expanded_conv_4/expand[0][0]     
__________________________________________________________________________________________________
tf_op_layer_AddV2_5 (TensorFlow [(None, 100, 16, 240 0           expanded_conv_4/expand/BatchNorm[
__________________________________________________________________________________________________
re_lu_10 (ReLU)                 (None, 100, 16, 240) 0           tf_op_layer_AddV2_5[0][0]        
__________________________________________________________________________________________________
tf_op_layer_Mul_5 (TensorFlowOp [(None, 100, 16, 240 0           re_lu_10[0][0]                   
__________________________________________________________________________________________________
multiply_3 (Multiply)           (None, 100, 16, 240) 0           tf_op_layer_Mul_5[0][0]          
                                                                 expanded_conv_4/expand/BatchNorm[
__________________________________________________________________________________________________
expanded_conv_4/depthwise (Dept (None, 100, 16, 240) 6000        multiply_3[0][0]                 
__________________________________________________________________________________________________
expanded_conv_4/depthwise/Batch (None, 100, 16, 240) 960         expanded_conv_4/depthwise[0][0]  
__________________________________________________________________________________________________
tf_op_layer_AddV2_6 (TensorFlow [(None, 100, 16, 240 0           expanded_conv_4/depthwise/BatchNo
__________________________________________________________________________________________________
re_lu_11 (ReLU)                 (None, 100, 16, 240) 0           tf_op_layer_AddV2_6[0][0]        
__________________________________________________________________________________________________
tf_op_layer_Mul_6 (TensorFlowOp [(None, 100, 16, 240 0           re_lu_11[0][0]                   
__________________________________________________________________________________________________
multiply_4 (Multiply)           (None, 100, 16, 240) 0           tf_op_layer_Mul_6[0][0]          
                                                                 expanded_conv_4/depthwise/BatchNo
__________________________________________________________________________________________________
expanded_conv_4/squeeze_excite/ (None, 240)          0           multiply_4[0][0]                 
__________________________________________________________________________________________________
reshape_2 (Reshape)             (None, 1, 1, 240)    0           expanded_conv_4/squeeze_excite/Av
__________________________________________________________________________________________________
expanded_conv_4/squeeze_excite/ (None, 1, 1, 64)     15424       reshape_2[0][0]                  
__________________________________________________________________________________________________
expanded_conv_4/squeeze_excite/ (None, 1, 1, 64)     0           expanded_conv_4/squeeze_excite/Co
__________________________________________________________________________________________________
expanded_conv_4/squeeze_excite/ (None, 1, 1, 240)    15600       expanded_conv_4/squeeze_excite/Re
__________________________________________________________________________________________________
tf_op_layer_AddV2_7 (TensorFlow [(None, 1, 1, 240)]  0           expanded_conv_4/squeeze_excite/Co
__________________________________________________________________________________________________
re_lu_12 (ReLU)                 (None, 1, 1, 240)    0           tf_op_layer_AddV2_7[0][0]        
__________________________________________________________________________________________________
tf_op_layer_Mul_7 (TensorFlowOp [(None, 1, 1, 240)]  0           re_lu_12[0][0]                   
__________________________________________________________________________________________________
expanded_conv_4/squeeze_excite/ (None, 100, 16, 240) 0           multiply_4[0][0]                 
                                                                 tf_op_layer_Mul_7[0][0]          
__________________________________________________________________________________________________
expanded_conv_4/project (Conv2D (None, 100, 16, 40)  9600        expanded_conv_4/squeeze_excite/Mu
__________________________________________________________________________________________________
expanded_conv_4/project/BatchNo (None, 100, 16, 40)  160         expanded_conv_4/project[0][0]    
__________________________________________________________________________________________________
expanded_conv_4/Add (Add)       (None, 100, 16, 40)  0           expanded_conv_3/project/BatchNorm
                                                                 expanded_conv_4/project/BatchNorm
__________________________________________________________________________________________________
expanded_conv_5/expand (Conv2D) (None, 100, 16, 240) 9600        expanded_conv_4/Add[0][0]        
__________________________________________________________________________________________________
expanded_conv_5/expand/BatchNor (None, 100, 16, 240) 960         expanded_conv_5/expand[0][0]     
__________________________________________________________________________________________________
tf_op_layer_AddV2_8 (TensorFlow [(None, 100, 16, 240 0           expanded_conv_5/expand/BatchNorm[
__________________________________________________________________________________________________
re_lu_13 (ReLU)                 (None, 100, 16, 240) 0           tf_op_layer_AddV2_8[0][0]        
__________________________________________________________________________________________________
tf_op_layer_Mul_8 (TensorFlowOp [(None, 100, 16, 240 0           re_lu_13[0][0]                   
__________________________________________________________________________________________________
multiply_5 (Multiply)           (None, 100, 16, 240) 0           tf_op_layer_Mul_8[0][0]          
                                                                 expanded_conv_5/expand/BatchNorm[
__________________________________________________________________________________________________
expanded_conv_5/depthwise (Dept (None, 100, 16, 240) 6000        multiply_5[0][0]                 
__________________________________________________________________________________________________
expanded_conv_5/depthwise/Batch (None, 100, 16, 240) 960         expanded_conv_5/depthwise[0][0]  
__________________________________________________________________________________________________
tf_op_layer_AddV2_9 (TensorFlow [(None, 100, 16, 240 0           expanded_conv_5/depthwise/BatchNo
__________________________________________________________________________________________________
re_lu_14 (ReLU)                 (None, 100, 16, 240) 0           tf_op_layer_AddV2_9[0][0]        
__________________________________________________________________________________________________
tf_op_layer_Mul_9 (TensorFlowOp [(None, 100, 16, 240 0           re_lu_14[0][0]                   
__________________________________________________________________________________________________
multiply_6 (Multiply)           (None, 100, 16, 240) 0           tf_op_layer_Mul_9[0][0]          
                                                                 expanded_conv_5/depthwise/BatchNo
__________________________________________________________________________________________________
expanded_conv_5/squeeze_excite/ (None, 240)          0           multiply_6[0][0]                 
__________________________________________________________________________________________________
reshape_3 (Reshape)             (None, 1, 1, 240)    0           expanded_conv_5/squeeze_excite/Av
__________________________________________________________________________________________________
expanded_conv_5/squeeze_excite/ (None, 1, 1, 64)     15424       reshape_3[0][0]                  
__________________________________________________________________________________________________
expanded_conv_5/squeeze_excite/ (None, 1, 1, 64)     0           expanded_conv_5/squeeze_excite/Co
__________________________________________________________________________________________________
expanded_conv_5/squeeze_excite/ (None, 1, 1, 240)    15600       expanded_conv_5/squeeze_excite/Re
__________________________________________________________________________________________________
tf_op_layer_AddV2_10 (TensorFlo [(None, 1, 1, 240)]  0           expanded_conv_5/squeeze_excite/Co
__________________________________________________________________________________________________
re_lu_15 (ReLU)                 (None, 1, 1, 240)    0           tf_op_layer_AddV2_10[0][0]       
__________________________________________________________________________________________________
tf_op_layer_Mul_10 (TensorFlowO [(None, 1, 1, 240)]  0           re_lu_15[0][0]                   
__________________________________________________________________________________________________
expanded_conv_5/squeeze_excite/ (None, 100, 16, 240) 0           multiply_6[0][0]                 
                                                                 tf_op_layer_Mul_10[0][0]         
__________________________________________________________________________________________________
expanded_conv_5/project (Conv2D (None, 100, 16, 40)  9600        expanded_conv_5/squeeze_excite/Mu
__________________________________________________________________________________________________
expanded_conv_5/project/BatchNo (None, 100, 16, 40)  160         expanded_conv_5/project[0][0]    
__________________________________________________________________________________________________
expanded_conv_5/Add (Add)       (None, 100, 16, 40)  0           expanded_conv_4/Add[0][0]        
                                                                 expanded_conv_5/project/BatchNorm
__________________________________________________________________________________________________
expanded_conv_6/expand (Conv2D) (None, 100, 16, 120) 4800        expanded_conv_5/Add[0][0]        
__________________________________________________________________________________________________
expanded_conv_6/expand/BatchNor (None, 100, 16, 120) 480         expanded_conv_6/expand[0][0]     
__________________________________________________________________________________________________
tf_op_layer_AddV2_11 (TensorFlo [(None, 100, 16, 120 0           expanded_conv_6/expand/BatchNorm[
__________________________________________________________________________________________________
re_lu_16 (ReLU)                 (None, 100, 16, 120) 0           tf_op_layer_AddV2_11[0][0]       
__________________________________________________________________________________________________
tf_op_layer_Mul_11 (TensorFlowO [(None, 100, 16, 120 0           re_lu_16[0][0]                   
__________________________________________________________________________________________________
multiply_7 (Multiply)           (None, 100, 16, 120) 0           tf_op_layer_Mul_11[0][0]         
                                                                 expanded_conv_6/expand/BatchNorm[
__________________________________________________________________________________________________
expanded_conv_6/depthwise (Dept (None, 100, 16, 120) 3000        multiply_7[0][0]                 
__________________________________________________________________________________________________
expanded_conv_6/depthwise/Batch (None, 100, 16, 120) 480         expanded_conv_6/depthwise[0][0]  
__________________________________________________________________________________________________
tf_op_layer_AddV2_12 (TensorFlo [(None, 100, 16, 120 0           expanded_conv_6/depthwise/BatchNo
__________________________________________________________________________________________________
re_lu_17 (ReLU)                 (None, 100, 16, 120) 0           tf_op_layer_AddV2_12[0][0]       
__________________________________________________________________________________________________
tf_op_layer_Mul_12 (TensorFlowO [(None, 100, 16, 120 0           re_lu_17[0][0]                   
__________________________________________________________________________________________________
multiply_8 (Multiply)           (None, 100, 16, 120) 0           tf_op_layer_Mul_12[0][0]         
                                                                 expanded_conv_6/depthwise/BatchNo
__________________________________________________________________________________________________
expanded_conv_6/squeeze_excite/ (None, 120)          0           multiply_8[0][0]                 
__________________________________________________________________________________________________
reshape_4 (Reshape)             (None, 1, 1, 120)    0           expanded_conv_6/squeeze_excite/Av
__________________________________________________________________________________________________
expanded_conv_6/squeeze_excite/ (None, 1, 1, 32)     3872        reshape_4[0][0]                  
__________________________________________________________________________________________________
expanded_conv_6/squeeze_excite/ (None, 1, 1, 32)     0           expanded_conv_6/squeeze_excite/Co
__________________________________________________________________________________________________
expanded_conv_6/squeeze_excite/ (None, 1, 1, 120)    3960        expanded_conv_6/squeeze_excite/Re
__________________________________________________________________________________________________
tf_op_layer_AddV2_13 (TensorFlo [(None, 1, 1, 120)]  0           expanded_conv_6/squeeze_excite/Co
__________________________________________________________________________________________________
re_lu_18 (ReLU)                 (None, 1, 1, 120)    0           tf_op_layer_AddV2_13[0][0]       
__________________________________________________________________________________________________
tf_op_layer_Mul_13 (TensorFlowO [(None, 1, 1, 120)]  0           re_lu_18[0][0]                   
__________________________________________________________________________________________________
expanded_conv_6/squeeze_excite/ (None, 100, 16, 120) 0           multiply_8[0][0]                 
                                                                 tf_op_layer_Mul_13[0][0]         
__________________________________________________________________________________________________
expanded_conv_6/project (Conv2D (None, 100, 16, 48)  5760        expanded_conv_6/squeeze_excite/Mu
__________________________________________________________________________________________________
expanded_conv_6/project/BatchNo (None, 100, 16, 48)  192         expanded_conv_6/project[0][0]    
__________________________________________________________________________________________________
expanded_conv_7/expand (Conv2D) (None, 100, 16, 144) 6912        expanded_conv_6/project/BatchNorm
__________________________________________________________________________________________________
expanded_conv_7/expand/BatchNor (None, 100, 16, 144) 576         expanded_conv_7/expand[0][0]     
__________________________________________________________________________________________________
tf_op_layer_AddV2_14 (TensorFlo [(None, 100, 16, 144 0           expanded_conv_7/expand/BatchNorm[
__________________________________________________________________________________________________
re_lu_19 (ReLU)                 (None, 100, 16, 144) 0           tf_op_layer_AddV2_14[0][0]       
__________________________________________________________________________________________________
tf_op_layer_Mul_14 (TensorFlowO [(None, 100, 16, 144 0           re_lu_19[0][0]                   
__________________________________________________________________________________________________
multiply_9 (Multiply)           (None, 100, 16, 144) 0           tf_op_layer_Mul_14[0][0]         
                                                                 expanded_conv_7/expand/BatchNorm[
__________________________________________________________________________________________________
expanded_conv_7/depthwise (Dept (None, 100, 16, 144) 3600        multiply_9[0][0]                 
__________________________________________________________________________________________________
expanded_conv_7/depthwise/Batch (None, 100, 16, 144) 576         expanded_conv_7/depthwise[0][0]  
__________________________________________________________________________________________________
tf_op_layer_AddV2_15 (TensorFlo [(None, 100, 16, 144 0           expanded_conv_7/depthwise/BatchNo
__________________________________________________________________________________________________
re_lu_20 (ReLU)                 (None, 100, 16, 144) 0           tf_op_layer_AddV2_15[0][0]       
__________________________________________________________________________________________________
tf_op_layer_Mul_15 (TensorFlowO [(None, 100, 16, 144 0           re_lu_20[0][0]                   
__________________________________________________________________________________________________
multiply_10 (Multiply)          (None, 100, 16, 144) 0           tf_op_layer_Mul_15[0][0]         
                                                                 expanded_conv_7/depthwise/BatchNo
__________________________________________________________________________________________________
expanded_conv_7/squeeze_excite/ (None, 144)          0           multiply_10[0][0]                
__________________________________________________________________________________________________
reshape_5 (Reshape)             (None, 1, 1, 144)    0           expanded_conv_7/squeeze_excite/Av
__________________________________________________________________________________________________
expanded_conv_7/squeeze_excite/ (None, 1, 1, 40)     5800        reshape_5[0][0]                  
__________________________________________________________________________________________________
expanded_conv_7/squeeze_excite/ (None, 1, 1, 40)     0           expanded_conv_7/squeeze_excite/Co
__________________________________________________________________________________________________
expanded_conv_7/squeeze_excite/ (None, 1, 1, 144)    5904        expanded_conv_7/squeeze_excite/Re
__________________________________________________________________________________________________
tf_op_layer_AddV2_16 (TensorFlo [(None, 1, 1, 144)]  0           expanded_conv_7/squeeze_excite/Co
__________________________________________________________________________________________________
re_lu_21 (ReLU)                 (None, 1, 1, 144)    0           tf_op_layer_AddV2_16[0][0]       
__________________________________________________________________________________________________
tf_op_layer_Mul_16 (TensorFlowO [(None, 1, 1, 144)]  0           re_lu_21[0][0]                   
__________________________________________________________________________________________________
expanded_conv_7/squeeze_excite/ (None, 100, 16, 144) 0           multiply_10[0][0]                
                                                                 tf_op_layer_Mul_16[0][0]         
__________________________________________________________________________________________________
expanded_conv_7/project (Conv2D (None, 100, 16, 48)  6912        expanded_conv_7/squeeze_excite/Mu
__________________________________________________________________________________________________
expanded_conv_7/project/BatchNo (None, 100, 16, 48)  192         expanded_conv_7/project[0][0]    
__________________________________________________________________________________________________
expanded_conv_7/Add (Add)       (None, 100, 16, 48)  0           expanded_conv_6/project/BatchNorm
                                                                 expanded_conv_7/project/BatchNorm
__________________________________________________________________________________________________
expanded_conv_8/expand (Conv2D) (None, 100, 16, 288) 13824       expanded_conv_7/Add[0][0]        
__________________________________________________________________________________________________
expanded_conv_8/expand/BatchNor (None, 100, 16, 288) 1152        expanded_conv_8/expand[0][0]     
__________________________________________________________________________________________________
tf_op_layer_AddV2_17 (TensorFlo [(None, 100, 16, 288 0           expanded_conv_8/expand/BatchNorm[
__________________________________________________________________________________________________
re_lu_22 (ReLU)                 (None, 100, 16, 288) 0           tf_op_layer_AddV2_17[0][0]       
__________________________________________________________________________________________________
tf_op_layer_Mul_17 (TensorFlowO [(None, 100, 16, 288 0           re_lu_22[0][0]                   
__________________________________________________________________________________________________
multiply_11 (Multiply)          (None, 100, 16, 288) 0           tf_op_layer_Mul_17[0][0]         
                                                                 expanded_conv_8/expand/BatchNorm[
__________________________________________________________________________________________________
expanded_conv_8/depthwise/pad ( (None, 103, 19, 288) 0           multiply_11[0][0]                
__________________________________________________________________________________________________
expanded_conv_8/depthwise (Dept (None, 50, 8, 288)   7200        expanded_conv_8/depthwise/pad[0][
__________________________________________________________________________________________________
expanded_conv_8/depthwise/Batch (None, 50, 8, 288)   1152        expanded_conv_8/depthwise[0][0]  
__________________________________________________________________________________________________
tf_op_layer_AddV2_18 (TensorFlo [(None, 50, 8, 288)] 0           expanded_conv_8/depthwise/BatchNo
__________________________________________________________________________________________________
re_lu_23 (ReLU)                 (None, 50, 8, 288)   0           tf_op_layer_AddV2_18[0][0]       
__________________________________________________________________________________________________
tf_op_layer_Mul_18 (TensorFlowO [(None, 50, 8, 288)] 0           re_lu_23[0][0]                   
__________________________________________________________________________________________________
multiply_12 (Multiply)          (None, 50, 8, 288)   0           tf_op_layer_Mul_18[0][0]         
                                                                 expanded_conv_8/depthwise/BatchNo
__________________________________________________________________________________________________
expanded_conv_8/squeeze_excite/ (None, 288)          0           multiply_12[0][0]                
__________________________________________________________________________________________________
reshape_6 (Reshape)             (None, 1, 1, 288)    0           expanded_conv_8/squeeze_excite/Av
__________________________________________________________________________________________________
expanded_conv_8/squeeze_excite/ (None, 1, 1, 72)     20808       reshape_6[0][0]                  
__________________________________________________________________________________________________
expanded_conv_8/squeeze_excite/ (None, 1, 1, 72)     0           expanded_conv_8/squeeze_excite/Co
__________________________________________________________________________________________________
expanded_conv_8/squeeze_excite/ (None, 1, 1, 288)    21024       expanded_conv_8/squeeze_excite/Re
__________________________________________________________________________________________________
tf_op_layer_AddV2_19 (TensorFlo [(None, 1, 1, 288)]  0           expanded_conv_8/squeeze_excite/Co
__________________________________________________________________________________________________
re_lu_24 (ReLU)                 (None, 1, 1, 288)    0           tf_op_layer_AddV2_19[0][0]       
__________________________________________________________________________________________________
tf_op_layer_Mul_19 (TensorFlowO [(None, 1, 1, 288)]  0           re_lu_24[0][0]                   
__________________________________________________________________________________________________
expanded_conv_8/squeeze_excite/ (None, 50, 8, 288)   0           multiply_12[0][0]                
                                                                 tf_op_layer_Mul_19[0][0]         
__________________________________________________________________________________________________
expanded_conv_8/project (Conv2D (None, 50, 8, 96)    27648       expanded_conv_8/squeeze_excite/Mu
__________________________________________________________________________________________________
expanded_conv_8/project/BatchNo (None, 50, 8, 96)    384         expanded_conv_8/project[0][0]    
__________________________________________________________________________________________________
expanded_conv_9/expand (Conv2D) (None, 50, 8, 576)   55296       expanded_conv_8/project/BatchNorm
__________________________________________________________________________________________________
expanded_conv_9/expand/BatchNor (None, 50, 8, 576)   2304        expanded_conv_9/expand[0][0]     
__________________________________________________________________________________________________
tf_op_layer_AddV2_20 (TensorFlo [(None, 50, 8, 576)] 0           expanded_conv_9/expand/BatchNorm[
__________________________________________________________________________________________________
re_lu_25 (ReLU)                 (None, 50, 8, 576)   0           tf_op_layer_AddV2_20[0][0]       
__________________________________________________________________________________________________
tf_op_layer_Mul_20 (TensorFlowO [(None, 50, 8, 576)] 0           re_lu_25[0][0]                   
__________________________________________________________________________________________________
multiply_13 (Multiply)          (None, 50, 8, 576)   0           tf_op_layer_Mul_20[0][0]         
                                                                 expanded_conv_9/expand/BatchNorm[
__________________________________________________________________________________________________
expanded_conv_9/depthwise (Dept (None, 50, 8, 576)   14400       multiply_13[0][0]                
__________________________________________________________________________________________________
expanded_conv_9/depthwise/Batch (None, 50, 8, 576)   2304        expanded_conv_9/depthwise[0][0]  
__________________________________________________________________________________________________
tf_op_layer_AddV2_21 (TensorFlo [(None, 50, 8, 576)] 0           expanded_conv_9/depthwise/BatchNo
__________________________________________________________________________________________________
re_lu_26 (ReLU)                 (None, 50, 8, 576)   0           tf_op_layer_AddV2_21[0][0]       
__________________________________________________________________________________________________
tf_op_layer_Mul_21 (TensorFlowO [(None, 50, 8, 576)] 0           re_lu_26[0][0]                   
__________________________________________________________________________________________________
multiply_14 (Multiply)          (None, 50, 8, 576)   0           tf_op_layer_Mul_21[0][0]         
                                                                 expanded_conv_9/depthwise/BatchNo
__________________________________________________________________________________________________
expanded_conv_9/squeeze_excite/ (None, 576)          0           multiply_14[0][0]                
__________________________________________________________________________________________________
reshape_7 (Reshape)             (None, 1, 1, 576)    0           expanded_conv_9/squeeze_excite/Av
__________________________________________________________________________________________________
expanded_conv_9/squeeze_excite/ (None, 1, 1, 144)    83088       reshape_7[0][0]                  
__________________________________________________________________________________________________
expanded_conv_9/squeeze_excite/ (None, 1, 1, 144)    0           expanded_conv_9/squeeze_excite/Co
__________________________________________________________________________________________________
expanded_conv_9/squeeze_excite/ (None, 1, 1, 576)    83520       expanded_conv_9/squeeze_excite/Re
__________________________________________________________________________________________________
tf_op_layer_AddV2_22 (TensorFlo [(None, 1, 1, 576)]  0           expanded_conv_9/squeeze_excite/Co
__________________________________________________________________________________________________
re_lu_27 (ReLU)                 (None, 1, 1, 576)    0           tf_op_layer_AddV2_22[0][0]       
__________________________________________________________________________________________________
tf_op_layer_Mul_22 (TensorFlowO [(None, 1, 1, 576)]  0           re_lu_27[0][0]                   
__________________________________________________________________________________________________
expanded_conv_9/squeeze_excite/ (None, 50, 8, 576)   0           multiply_14[0][0]                
                                                                 tf_op_layer_Mul_22[0][0]         
__________________________________________________________________________________________________
expanded_conv_9/project (Conv2D (None, 50, 8, 96)    55296       expanded_conv_9/squeeze_excite/Mu
__________________________________________________________________________________________________
expanded_conv_9/project/BatchNo (None, 50, 8, 96)    384         expanded_conv_9/project[0][0]    
__________________________________________________________________________________________________
expanded_conv_9/Add (Add)       (None, 50, 8, 96)    0           expanded_conv_8/project/BatchNorm
                                                                 expanded_conv_9/project/BatchNorm
__________________________________________________________________________________________________
expanded_conv_10/expand (Conv2D (None, 50, 8, 576)   55296       expanded_conv_9/Add[0][0]        
__________________________________________________________________________________________________
expanded_conv_10/expand/BatchNo (None, 50, 8, 576)   2304        expanded_conv_10/expand[0][0]    
__________________________________________________________________________________________________
tf_op_layer_AddV2_23 (TensorFlo [(None, 50, 8, 576)] 0           expanded_conv_10/expand/BatchNorm
__________________________________________________________________________________________________
re_lu_28 (ReLU)                 (None, 50, 8, 576)   0           tf_op_layer_AddV2_23[0][0]       
__________________________________________________________________________________________________
tf_op_layer_Mul_23 (TensorFlowO [(None, 50, 8, 576)] 0           re_lu_28[0][0]                   
__________________________________________________________________________________________________
multiply_15 (Multiply)          (None, 50, 8, 576)   0           tf_op_layer_Mul_23[0][0]         
                                                                 expanded_conv_10/expand/BatchNorm
__________________________________________________________________________________________________
expanded_conv_10/depthwise (Dep (None, 50, 8, 576)   14400       multiply_15[0][0]                
__________________________________________________________________________________________________
expanded_conv_10/depthwise/Batc (None, 50, 8, 576)   2304        expanded_conv_10/depthwise[0][0] 
__________________________________________________________________________________________________
tf_op_layer_AddV2_24 (TensorFlo [(None, 50, 8, 576)] 0           expanded_conv_10/depthwise/BatchN
__________________________________________________________________________________________________
re_lu_29 (ReLU)                 (None, 50, 8, 576)   0           tf_op_layer_AddV2_24[0][0]       
__________________________________________________________________________________________________
tf_op_layer_Mul_24 (TensorFlowO [(None, 50, 8, 576)] 0           re_lu_29[0][0]                   
__________________________________________________________________________________________________
multiply_16 (Multiply)          (None, 50, 8, 576)   0           tf_op_layer_Mul_24[0][0]         
                                                                 expanded_conv_10/depthwise/BatchN
__________________________________________________________________________________________________
expanded_conv_10/squeeze_excite (None, 576)          0           multiply_16[0][0]                
__________________________________________________________________________________________________
reshape_8 (Reshape)             (None, 1, 1, 576)    0           expanded_conv_10/squeeze_excite/A
__________________________________________________________________________________________________
expanded_conv_10/squeeze_excite (None, 1, 1, 144)    83088       reshape_8[0][0]                  
__________________________________________________________________________________________________
expanded_conv_10/squeeze_excite (None, 1, 1, 144)    0           expanded_conv_10/squeeze_excite/C
__________________________________________________________________________________________________
expanded_conv_10/squeeze_excite (None, 1, 1, 576)    83520       expanded_conv_10/squeeze_excite/R
__________________________________________________________________________________________________
tf_op_layer_AddV2_25 (TensorFlo [(None, 1, 1, 576)]  0           expanded_conv_10/squeeze_excite/C
__________________________________________________________________________________________________
re_lu_30 (ReLU)                 (None, 1, 1, 576)    0           tf_op_layer_AddV2_25[0][0]       
__________________________________________________________________________________________________
tf_op_layer_Mul_25 (TensorFlowO [(None, 1, 1, 576)]  0           re_lu_30[0][0]                   
__________________________________________________________________________________________________
expanded_conv_10/squeeze_excite (None, 50, 8, 576)   0           multiply_16[0][0]                
                                                                 tf_op_layer_Mul_25[0][0]         
__________________________________________________________________________________________________
expanded_conv_10/project (Conv2 (None, 50, 8, 96)    55296       expanded_conv_10/squeeze_excite/M
__________________________________________________________________________________________________
expanded_conv_10/project/BatchN (None, 50, 8, 96)    384         expanded_conv_10/project[0][0]   
__________________________________________________________________________________________________
expanded_conv_10/Add (Add)      (None, 50, 8, 96)    0           expanded_conv_9/Add[0][0]        
                                                                 expanded_conv_10/project/BatchNor
__________________________________________________________________________________________________
Conv_1 (Conv2D)                 (None, 50, 8, 576)   55296       expanded_conv_10/Add[0][0]       
__________________________________________________________________________________________________
Conv_1/BatchNorm (BatchNormaliz (None, 50, 8, 576)   2304        Conv_1[0][0]                     
__________________________________________________________________________________________________
tf_op_layer_AddV2_26 (TensorFlo [(None, 50, 8, 576)] 0           Conv_1/BatchNorm[0][0]           
__________________________________________________________________________________________________
re_lu_31 (ReLU)                 (None, 50, 8, 576)   0           tf_op_layer_AddV2_26[0][0]       
__________________________________________________________________________________________________
tf_op_layer_Mul_26 (TensorFlowO [(None, 50, 8, 576)] 0           re_lu_31[0][0]                   
__________________________________________________________________________________________________
multiply_17 (Multiply)          (None, 50, 8, 576)   0           tf_op_layer_Mul_26[0][0]         
                                                                 Conv_1/BatchNorm[0][0]           
__________________________________________________________________________________________________
Conv_2 (Conv2D)                 (None, 50, 8, 1024)  590848      multiply_17[0][0]                
__________________________________________________________________________________________________
tf_op_layer_AddV2_27 (TensorFlo [(None, 50, 8, 1024) 0           Conv_2[0][0]                     
__________________________________________________________________________________________________
re_lu_32 (ReLU)                 (None, 50, 8, 1024)  0           tf_op_layer_AddV2_27[0][0]       
__________________________________________________________________________________________________
tf_op_layer_Mul_27 (TensorFlowO [(None, 50, 8, 1024) 0           re_lu_32[0][0]                   
__________________________________________________________________________________________________
multiply_18 (Multiply)          (None, 50, 8, 1024)  0           tf_op_layer_Mul_27[0][0]         
                                                                 Conv_2[0][0]                     
==================================================================================================
Total params: 1,529,680
Trainable params: 1,517,568
Non-trainable params: 12,112
__________________________________________________________________________________________________
